name: "3DAE"
layer {
  name: "dummy"
  type: "DummyData"
  top: "data"
  top: "label"
  dummy_data_param {
    shape { dim: 10 dim: 1 dim: 5 dim: 5 dim: 5  }
    shape { dim: 10 dim: 1 }	
  }
}

layer {
  name: "conv1"
  type: "Convolution"
  bottom: "data"
  top: "conv1"
  param {
    lr_mult: 1
    decay_mult: 1
  }
  param {
    lr_mult: 2
    decay_mult: 0
  }
  convolution_param {
    num_output: 16
    kernel_size: 4
    kernel_size: 4
    kernel_size: 4
    stride: 1
    weight_filler {
      type: "gaussian"
      std: 0.01
    }
    bias_filler {
      type: "constant"
      value: 0
    }
  }
}
layer {
  name: "relu1"
  type: "ReLU"
  bottom: "conv1"
  top: "conv1"
}

# DECONVOLUTION PART

layer {
  name: "conv1t"
  type: "Deconvolution"
  bottom: "conv1"
  top: "conv1t"
  param {
    lr_mult: 1
    decay_mult: 1
  }
  param {
    lr_mult: 2
    decay_mult: 0
  }
  convolution_param {
    num_output: 1
    kernel_size: 4
    kernel_size: 4
    kernel_size: 4
    stride: 1
  }
}


layer {
  name: "flatdata"
  type: "Flatten"
  bottom: "data"
  top: "flatdata"
}

layer {
  name: "loss"
  type: "SigmoidCrossEntropyLoss"
  bottom: "conv1t"
  bottom: "flatdata"
  top: "cross_entropy_loss"
  loss_weight: 1
}
layer {
  name: "decode1neuron"
  type: "Sigmoid"
  bottom: "conv1t"
  top: "decode1neuron"
}
layer {
  name: "loss"
  type: "EuclideanLoss"
  bottom: "decode1neuron"
  bottom: "flatdata"
  top: "l2_error"
  loss_weight: 0
}



